…
uri":"https://localhost:8080/","height":1000},"executionInfo":{"elapsed":2487,"status":"ok","timestamp":1659764901017,"user":{"displayName":"Diego Alducin","userId":"07339810328674182189"},"user_tz":300},"id":"shqiFxWP5_l9","outputId":"58f4c2d5-b918-42d1-aada-ab14f4f138b0"},"outputs":[{"name":"stdout","output_type":"stream","text":["Model: \"sequential\"\n","_________________________________________________________________\n"," Layer (type)                Output Shape              Param #   \n","=================================================================\n"," conv2d (Conv2D)             (None, 55, 55, 48)        192       \n","                                                                 \n"," batch_normalization (BatchN  (None, 55, 55, 48)       192       \n"," ormalization)                                                   \n","                                                                 \n"," re_lu (ReLU)                (None, 55, 55, 48)        0         \n","                                                                 \n"," dropout (Dropout)           (None, 55, 55, 48)        0         \n","                                                                 \n"," conv2d_1 (Conv2D)           (None, 28, 28, 192)       83136     \n","                                                                 \n"," conv2d_2 (Conv2D)           (None, 28, 28, 192)       331968    \n","                                                                 \n"," conv2d_3 (Conv2D)           (None, 28, 28, 192)       331968    \n","                                                                 \n"," max_pooling2d (MaxPooling2D  (None, 14, 14, 192)      0         \n"," )                                                               \n","                                                                 \n"," flatten (Flatten)           (None, 37632)             0         \n","                                                                 \n"," dense (Dense)               (None, 4096)              154144768 \n","                                                                 \n"," dropout_1 (Dropout)         (None, 4096)              0         \n","                                                                 \n"," dense_1 (Dense)             (None, 4096)              16781312  \n","                                                                 \n"," dropout_2 (Dropout)         (None, 4096)              0         \n","                                                                 \n"," dense_2 (Dense)             (None, 28)                114716    \n","                                                                 \n","=================================================================\n","Total params: 171,788,252\n","Trainable params: 171,788,156\n","Non-trainable params: 96\n","_________________________________________________________________\n","None\n"]},{"data":{"image/png":"…\n","text/plain":["\u003cIPython.core.display.Image obj
…
":"stdout","output_type":"stream","text":["Downloading data from https://storage.googleapis.com/tensorflow/keras-applications/resnet/resnet101_weights_tf_dim_ordering_tf_kernels_notop.h5\n","171450368/171446536 [==============================] - 2s 0us/step\n","171458560/171446536 [==============================] - 2s 0us/step\n","Model: \"sequential_2\"\n","_________________________________________________________________\n"," Layer (type)                Output Shape              Param #   \n","=================================================================\n"," resnet101 (Functional)      (None, 7, 7, 2048)        42658176  \n","                                                                 \n"," batch_normalization_2 (Batc  (None, 7, 7, 2048)       8192      \n"," hNormalization)                                                 \n","                                                                 \n"," re_lu_2 (ReLU)              (None, 7, 7, 2048)        0         \n","                                                                 \n"," dropout_6 (Dropout)         (None, 7, 7, 2048)        0         \n","                                                                 \n"," dense_6 (Dense)             (None, 7, 7, 4096)        8392704   \n","                                                                 \n"," dropout_7 (Dropout)         (None, 7, 7, 4096)        0         \n","                                                                 \n"," dense_7 (Dense)             (None, 7, 7, 28)          114716    \n","                                                                 \n","=================================================================\n","Total params: 51,173,788\n","Trainable params: 51,064,348\n","Non-trainable params: 109,440\n","_________________________________________________________________\n","None\n"]},{"data":{"image/png":"…\n","text/plain":["\u003cIPython.core.display.Image 
…
